models/q2newgpu.model (torch_old, 39572 bytes, 14 tensors)

weight f4 [12, 3, 3, 3]
00000000: 8ed9 cabe 114a 163e b9c2 923e 3552 143e
00000010: 7252 c7bd 83e1 393e 5c9d c03d b397 9a3e
00000020: d4d6 a83d 37d3 38be ad42 c33e f1ab 263e
00000030: 8500 8abd 1ebf 483e 810c a23e 3058 823e
00000040: e87c 05be 8083 6dbc f744 39be 7024 fbbe
00000050: bd90 91be bd3d 9fbe ac47 b53d 6130 a3be
00000060: 63e2 fdbd 41b5 a1be 9606 28be 76a4 8d3e
00000070: eba5 763e a607 4abe a9db f7bd 748f 58be
00000080: 499c a93d 567d 8dbd 64f3 3fbe ca8b 803d
00000090: 4981 0abe 7ec2 b7be c752 90be 6a7c 123f
000000a0: f7c2 913e fbe0 db3d 750d 423e 4445 a63e
000000b0: 1445 50bd 781e 9b3e 439a 413f f4c1 9c3e
000000c0: 07ea 123c 1147 173d b82c 1d3e a45d 1ebe
000000d0: eb18 2bbe 98a4 91be 5e6a 4a3e d7d3 8c3e
000000e0: 3f81 1cbe 6732 d2bd 0073 bd3e 1331 ab3e
000000f0: 8ce3 5e3e 1b38 e5bd 784a 023e 99b7 fa3c
00000100: 97f4 c1be 554d e23c 1207 e73e 7378 e23c
00000110: e026 c9be 474b 20be 49f8 ae3e 5586 903e
00000120: d429 edbe 9cd2 5e3d 5002 5d3e 59f5 0a3f
00000130: 2eb1 b0be e190 ab3e d77e 32bd 17b6 03be
00000140: 3558 86be 1607 303e 07f4 693e dd77 ef3d
00000150: bc3a bbbe 88db 3ebe efd7 27be 1ee6 203d
00000160: de3e 56be fbec 8abc ebea 213d ff8f 0c3e
00000170: a424 463e df60 02be 9c31 143e 8c66 38be
00000180: 4674 dd3e e258 82bd 5a0b bdbd 5f49 6abe
00000190: 93bc 1ebf 980d aebe 9595 6f3b b534 8c3d
000001a0: 0f3b 823d f2e9 a03e 9bf2 ea3d 2ca5 01be
000001b0: f001 0bbd b6c5 6b3d 7eb4 1f3e eee3 b1bd
000001c0: 575f 31be 1ec6 583a f2bf 8ebe 2bf6 06be
000001d0: 9626 f5bd f66f 813e 945d 6c3e 9e71 963e
000001e0: 57cd 6d3e 42c2 cc3e f753 a93e eccf 7d3e
000001f0: 12f6 13ba 7708 b23d ee3c 833e 14cd 373e
00000200: 6881 193e 6856 2dbd de33 c53d 04a4 443e
00000210: 4b5a 69bc cbc2 933d d7e7 083e 4563 3fbe
00000220: e442 13be 430b abbd 036b 46be 588a 53be
00000230: 3a15 abbb 0371 853e 2435 b9bd a0fd 40be
00000240: de71 943e bd16 c03d 069c 57bd d549 9dbe
00000250: 051a b4be 6035 20bf 07e7 973e bb10 0d3d
00000260: 34e3 79be 0098 f3be 2767 7b3d 00dc bf3d
00000270: 3005 42be a960 643e fb56 fbbe 6f49 88bd
00000280: 31cc d83e 11d6 9d3d d486 bfbc afe3 87be
00000290: 59d2 d33c cba0 293e b71f 2d3c 7fa4 8abe
000002a0: 8fd2 b8be ae7f 9abe 6952 adbe d813 1e3d
000002b0: bf1d 44be 960b a0be fba2 3c3d 8542 183e
000002c0: 092a 6b3e ec6d 6dbe d357 91be 2f33 69be
000002d0: 4142 02be e24a 10bd 5689 c8be a989 e0bd
000002e0: 46dc b23d 3c73 55be 46a8 d53b 0479 61be
000002f0: bc5f f0be a79c b8bc cf17 773c 47d1 88bd
00000300: 6f0e 883e 5f49 ae3e f585 66be c9ea 0abe
00000310: b684 f9bd c02d 0bbe 2fe4 58be bb0e c1be
00000320: 645f 263d 96eb 9a3e 4024 a73e aa54 9f3e
00000330: 6d8f 2a3e ef0e 813e 67d5 14be 5923 91be
00000340: c097 e2be 08ba dabe 46cd 193f 435e 3dbd
00000350: 6ad8 173d 1b28 953d 7968 e23e 39d3 6c3e
00000360: 8239 f53b 21d2 34be 7eea a2bd 760c d83e
00000370: ed58 893e 299f b33e 4f89 bd3c e353 de3d
00000380: 326d d9bd 5c3e 20be b234 e3bd 69bf 00be
00000390: 06c6 ba3d 8c35 b1bd d3a5 7abe 2895 fb3e
000003a0: 9f75 023f bdc4 623e 4097 8c3d 8a7e 723e
000003b0: 7238 013f 985c 7b3e 97f9 483e 74f6 ebbd
000003c0: b2f0 ecbe 6be3 acbe c032 bfbd 0821 43bb
000003d0: d5de 6dbe 2d55 6dbe 2799 b63c 3427 59be
000003e0: 0c65 9ebe 4be5 1cbc 7124 82bd 6e06 893d
000003f0: 24fb b4be b35a b2be 5880 a4be 40ef cd3e
-0.39619106 0.14676692 0.28664187 0.14484484 -0.09732522 0.18152432 0.09405014 0.30193862
0.082441 -0.18049322 0.38136807 0.16276528 -0.0673838 0.19604155 0.31650165 0.25457907
-0.13035929 -0.014496684 -0.18092714 -0.49051237 -0.2843074 -0.3110179 0.08851561 -0.31872848
-0.123966955 -0.31583598 -0.16408762 0.27664536 0.2408673 -0.1972948 -0.12102444 -0.21148473
0.08281762 -0.069086716 -0.1874519 0.06276663 -0.13525881 -0.35890573 -0.28188154 0.5722109
0.2846906 0.10736271 0.18950446 0.3247472 -0.050847128 0.30296683 0.7562601 0.30616724
0.008966929 0.03693301 0.1534909 -0.15465409 -0.16708724 -0.28445888 0.19767138 0.2750537
-0.15283678 -0.1026352 0.370018 0.33435878 0.2176649 -0.11192342 0.1272372 0.030605124
-0.3788192 0.027624765 0.45122582 0.027645325 -0.39287472 -0.15653716 0.34173802 0.28227487
-0.46320975 0.05440007 0.21582913 0.5428062 -0.34510177 0.3350897 -0.043577995 -0.1286243
-0.26239172 0.17190203 0.22846995 0.11692784 -0.36568248 -0.18638432 -0.16390966 0.039281957
-0.2092242 -0.016958704 0.039530676 0.13726805 0.19349915 -0.12732266 0.1447205 -0.18007869
0.43252772 -0.06364609 -0.09230681 -0.22879551 -0.6200649 -0.33994746 0.0036557664 0.068459906
0.06358921 0.31428486 0.114720546 -0.12660664 -0.033937395 0.0575616 0.15596196 -0.08686052
-0.17321526 0.0008269268 -0.27880818 -0.13179843 -0.1197025 0.25280732 0.23082572 0.29383558
0.23222862 0.39991957 0.33071873 0.24786347 -0.00056442723 0.08693021 0.25632423 0.17949325
0.14990771 -0.04231873 0.096290335 0.19203192 -0.014242719 0.07214888 0.1336969 -0.18690212
-0.14380985 -0.083517574 -0.19376759 -0.20658243 -0.0052210363 0.26062784 -0.09043339 -0.1884675
0.28993124 0.09379337 -0.05263903 -0.30720392 -0.351761 -0.62581444 0.29668447 0.034439784
-0.24403077 -0.47576904 0.06137767 0.093681335 -0.18947291 0.22302498 -0.49089798 -0.06654631
0.42343286 0.077068456 -0.02337972 -0.26540896 0.025857138 0.16565244 0.010566643 -0.27078626
-0.36098143 -0.30175537 -0.33851936 0.038593143 -0.19151972 -0.3125884 0.046053868 0.14869125
0.22965254 -0.23186463 -0.28387317 -0.22773431 -0.12720586 -0.035227664 -0.3916728 -0.109637566
0.0873342 -0.2084474 0.006520304 -0.2201882 -0.4694804 -0.022535635 0.01508136 -0.066805415
0.26573512 0.34040353 -0.22512038 -0.13566126 -0.12183516 -0.13591671 -0.21180795 -0.3770655
0.040618315 0.30257863 0.32644844 0.3111928 0.16656275 0.25206706 -0.14534532 -0.2834728
-0.442564 -0.42720056 0.6007885 -0.046232473 0.037071623 0.0728304 0.4422033 0.2312745
0.007483662 -0.17658283 -0.07954882 0.42197007 0.26825657 0.35082367 0.023136763 0.10855844
-0.106165305 -0.15648788 -0.11094035 -0.12573017 0.09119801 -0.086527914 -0.2447732 0.49137235
0.50960726 0.22145362 0.06864786 0.23681083 0.50476754 0.2454704 0.19626461 -0.115216166
-0.46277386 -0.33767256 -0.09335852 -0.0029774327 -0.23229535 -0.23177023 0.022289826 -0.21206361
-0.30936468 -0.009576152 -0.06354607 0.066906795 -0.35347855 -0.34834823 -0.3212917 0.40221596

bias f4 [12]
00000000: e168 c13d bb94 143e b535 243f 1910 aa3d
00000010: cb44 093e 4219 bf3d a584 7fbd 7ade 283e
00000020: e074 b9bb 12ba b83e a97e 7abe 92a7 ccbd
0.09443832 0.14509861 0.6414445 0.08303852 0.13405149 0.093309894 -0.06238236 0.16491118
-0.0056596845 0.3607946 -0.2446238 -0.09992899

weight f4 [12]
00000000: d89d 933f bd41 793f 0baf 973f a46d 723f
00000010: 000c 493f 44b1 873f 397c 563f 03fd 9e3f
00000020: e461 6a3f f1ba 5f3f 3b0a 953f a6f0 aa3f
1.1532545 0.97365934 1.1850294 0.9469855 0.78533936 1.0600972 0.837833 1.2420963
0.9155562 0.87394625 1.1643747 1.335469

bias f4 [12]
00000000: a9c8 b8bd 0a81 03bd 469d 9cbd 08a8 3d3d
00000010: c482 bebe a749 a3be 2d62 a6be 305c 7cbe
00000020: c468 1c3e ccf6 40bd ae49 02bd f372 30bf
-0.09022648 -0.032105483 -0.07647185 0.046302825 -0.3720914 -0.3189213 -0.32496777 -0.24644542
0.1527434 -0.047110364 -0.031808548 -0.689254

running_mean f4 [12]
00000000: 4dc9 0b3e 7894 5b3f 9533 b13f e68a 48be
00000010: b2fe b13f 206b 82bf 3be9 f0bf 75c7 143f
00000020: e37b 653f 4558 bfbe 6b15 f03f b94a 593c
0.13651009 0.8577342 1.3843867 -0.19584236 1.3905852 -1.0188942 -1.8821176 0.5811685
0.8964216 -0.37372032 1.8756536 0.013262444

running_var f4 [12]
00000000: c456 b83d 4a75 7e3e 83f9 8b3d 0101 213e
00000010: 493a 063e 8314 e03d 2b75 2c3e c025 803e
00000020: b088 e73e ef30 fe3d 5f4b 6e3e 58eb 613e
0.09000924 0.2484943 0.068347 0.15723039 0.13108172 0.10941412 0.16841571 0.250288
0.45221472 0.12411677 0.2327094 0.22062433

weight f4 [12, 12, 3, 3]
00000000: 6929 6ebc 4ac2 50be f39e 65be 4180 983e
00000010: 873e 2a3d 522b 063e b2a7 ccbd 883c 0bbe
00000020: 1ed6 73bd 98aa ed3b f668 b63d ff2e 033d
00000030: b6bb 883e bb8f 2b3d 1ec3 4fbe 31c7 5c3c
00000040: 4948 00be e82a 2abe e61f db3d 6e0e 4bbe
00000050: fa17 0dbe 2931 3abf 5289 1fbf 0a06 b0be
00000060: c9ca debb e0ea 49be b543 08bb 5106 9b3e
00000070: 0714 4c3e ef41 bfbd 892e c43e d3b3 263e
00000080: cb8e b9bc e9da bebc 90d8 ecbd 5c85 95be
00000090: 3b85 3ebd 0c0d 013e ca51 3e3d b9b7 b03d
000000a0: ff47 ac3d 6e31 b03d 8490 723d 474c 0fbd
000000b0: 84f8 643d adb3 013e f30c ee3d 8883 d0bc
000000c0: 01d9 e93d cb64 813e b566 863d 87b0 3dbe
000000d0: 553d b6bd b364 07be 93ee 4abd f5c9 b13d
000000e0: 4ecc 5f3d b44b 513e a3df 8d3e f396 343e
000000f0: 8f3a 233c b5c0 d13d 705b 0b3e 66df 593e
00000100: 64d7 a23d 65a7 1cbe 355f 113b 2086 7fbd
00000110: cc37 4bbe 35bc 9138 722e 4f3d 3ad0 5e3d
00000120: 10df ab3e e0ba 6e3d f701 e33d 16f7 fc3d
00000130: 76f7 1cbd 6755 c6be a78d 843d 9627 24be
00000140: 901b 0ebe 4b54 1b3e 49be f63d c946 253d
00000150: 9c6f 23bd 9b92 843d bdeb 21bd 9f82 a3be
00000160: 5c65 963d 5313 dcbd a549 16be 442c 49be
00000170: 0519 d3be 6733 50be af4c d6be 5b9f fbbe
00000180: 615c d4be b86a bfbe 46be f7be 2c82 383e
00000190: a683 9b3d 050b bdbd 5fb3 01be 6bf6 09be
000001a0: 1d3d cfbd ad7d 9a3d b07d c3be a1af d8be
000001b0: dc32 1abe d24d babe 381b 46be 3aea 66be
000001c0: 0704 60be a913 8ebe 8d33 9fbe b64c 88be
000001d0: b680 203d 2798 a2be ce1f 91be 801d f2be
000001e0: 742b 123e 26e9 c83d 5d35 65bc 8dbd a33e
000001f0: f80c ea3d 1ac2 55be e75b c93a 1e1f c73a
00000200: b616 98bd 8ea5 6b3e e984 6d3e 69c0 4ebd
00000210: a6eb 19bd 62e1 31be 2fdb 9dbe 34c0 4c3e
00000220: 96a8 2a3d 9bfb efbc d5c2 9a3c 904c 253e
00000230: 97f2 aa3d 4d6a fe3d ce7d 953e fa24 8b3e
00000240: 68fe c9bd 9c34 8dbd fd87 b1be ec7b 80bc
00000250: f358 ecbd 4c04 3dbe 5eed d83c 78e8 2bbd
00000260: 8047 39bd 39b2 993d fc66 2e3e e58c 053d
00000270: 3ad5 2f3c ba2c 1d3e 6036 2b3d 5173 9abe
00000280: 59b7 603c 076d 1fbe 2d50 4cbe 03d5 293e
00000290: 8397 6c3d 2ff3 9abe bd3f f13d adbd bcbc
000002a0: 9ce3 4cbd 8563 0e3e 1661 b6bd a52d 2fbe
000002b0: 9a2a 48bd 74da 72be 17d3 5dbe fa8f 23be
000002c0: 9c7a 31be 56d5 583c 5013 183e c214 e7bc
000002d0: 7312 243e 35e6 dc3d f245 623a 733d 1c3e
000002e0: 27bb eb3d 4395 be3d 0eba d6bd 5457 76be
000002f0: 520b d3be 2b86 cd3d 4e54 3a3e 4f2d 1ebc
00000300: 7511 333d ec09 7a3e 88f1 bb3d 1a6a a5bc
00000310: 794a 883e 8b90 b53d cb6d 9e3e 8a10 4d3e
00000320: 9599 673e 8124 683e 7bbe 053e 86f8 06bd
00000330: 669b acbe 5b7c 2fbe 5e69 e3be ce03 2b3e
00000340: 653b c0be 6a5c 83be 8536 ecbd f5a2 8fbe
00000350: eb94 95be e6a8 afbe 9785 eebe 5e9e 65be
00000360: fe03 9e3d c8b7 b93b 6c23 cf3d 07b3 e13c
00000370: 26f6 103e 939e 253e 6d01 d13e 3967 c93e
00000380: 1d81 293e 6ebf 0fbe d2bb ec3d 04b2 88bc
00000390: 20f6 22be 2fe5 15be dad8 34bd 32cb 463c
000003a0: 5241 02bd 8b2e 49be e4d7 7f3e 5841 653e
000003b0: 896a 653e 7ccc 4e3e 624e 373e c6af 593d
000003c0: a11c 5f3e 4b54 823e d12c 223e 2e8e 08ba
000003d0: 6236 5fbe 4f51 d2bd 0e36 adbd 7288 a8bd
000003e0: 1328 9abd a016 c63c d6df 95be 2c81 04be
000003f0: 87e9 0cbe dc7a abbd ab68 313d 771b 0dbe
-0.01453624 -0.20386615 -0.22423916 0.2978535 0.041563537 0.13102463 -0.09992923 -0.1359731
-0.05953037 0.0072530024 0.089067385 0.03202724 0.26705712 0.04188512 -0.20289275 0.013475225
-0.12527575 -0.1661793 0.106994435 -0.19829723 -0.13778678 -0.7273126 -0.6231891 -0.34379607
-0.006799076 -0.19718504 -0.002079231 0.30278257 0.19929515 -0.09338748 0.38316754 0.16279535
-0.022651097 -0.023297744 -0.115647435 -0.29203308 -0.046513777 0.12602633 0.04646472 0.08628792
0.0841217 0.08603178 0.059219852 -0.034984853 0.055901065 0.12666197 0.116235636 -0.025453344
0.11418343 0.2527221 0.065625586 -0.18524371 -0.08898417 -0.13222007 -0.04954393 0.08681098
0.0546382 0.20439035 0.27709684 0.17635708 0.009962692 0.10241834 0.136091 0.21276626
0.07951239 -0.15298231 0.0022181992 -0.06238377 -0.19845504 6.949195e-05 0.050581403 0.0543978
0.3356862 0.058283687 0.11084359 0.123518154 -0.038321935 -0.38737032 0.064723305 -0.16030726
-0.13877702 0.15168874 0.12048013 0.04035071 -0.03990136 0.06473275 -0.03953146 -0.31935593
0.073435515 -0.10745873 -0.1467653 -0.19645792 -0.41230026 -0.20332108 -0.4185538 -0.49145016
-0.4147673 -0.37386107 -0.48387355 0.18018407 0.07593469 -0.092306174 -0.12666081 -0.13472907
-0.10119078 0.07543502 -0.3818183 -0.42321494 -0.15058464 -0.36387497 -0.1934632 -0.22550288
-0.21876536 -0.27749375 -0.31094018 -0.26621026 0.03918525 -0.31756708 -0.28344578 -0.47288132
0.14274389 0.098100945 -0.013989774 0.31980553 0.11428255 -0.20874825 0.0015362472 0.0015191769
-0.07426207 0.23012373 0.23195232 -0.050476465 -0.037578247 -0.17371133 -0.30831286 0.19995195
0.041664682 -0.02929478 0.018891731 0.16142488 0.083470516 0.12422619 0.29197544 0.27176648
-0.09862977 -0.068948 -0.34674063 -0.01568409 -0.11540403 -0.1845867 0.026480373 -0.041969746
-0.045234203 0.075046964 0.17031473 0.03260507 0.0107319895 0.15349093 0.041799903 -0.30166104
0.0137155885 -0.15568934 -0.1995246 0.16585164 0.05776168 -0.3026366 0.11779735 -0.023039663
-0.050021753 0.13905151 -0.089052364 -0.17107256 -0.048868753 -0.23716146 -0.21662556 -0.15972891
-0.17331928 0.013234457 0.14851117 -0.02820814 0.16022663 0.10786096 0.00086316385 0.15257816
0.11510306 0.09305813 -0.10484706 -0.2405675 -0.41219574 0.10035356 0.18196222 -0.009654357
0.04371782 0.24417847 0.09176928 -0.020192195 0.26619318 0.0886546 0.3094314 0.2002584
0.2261718 0.22670175 0.13060944 -0.032951854 -0.3371231 -0.17137282 -0.44416326 0.1670067
-0.37545314 -0.25656444 -0.11533836 -0.28054014 -0.29215178 -0.34308547 -0.46586296 -0.22423694
0.07715605 0.0056676604 0.10114178 0.027551187 0.14156398 0.16173773 0.408214 0.39336565
0.16553159 -0.14037868 0.115592614 -0.016686447 -0.15914202 -0.14638208 -0.04415212 0.0121334065
-0.031800576 -0.19646661 0.249847 0.22388208 0.22403921 0.20195192 0.17900994 0.053146146
0.21788265 0.25454935 0.15837409 -0.00052091747 -0.21798089 -0.10269415 -0.08457576 -0.0822915
-0.07527175 0.02418071 -0.29272336 -0.129399 -0.13760959 -0.08373043 0.04331271 -0.13780008

bias f4 [12]
00000000: 5261 1a3e c9a9 b33d 3b00 ebbd 9195 a93c
00000010: 51a0 6b3d 4f93 843c 3ac0 a2bb 5bf6 523e
00000020: a426 97bd 94da ec3b 64a6 ddbd aa10 44bd
0.15076187 0.08772618 -0.11474653 0.020701202 0.057525937 0.016183523 -0.004966763 0.2060179
-0.07380417 0.007228205 -0.10822752 -0.047867455

weight f4 [12]
00000000: 74c9 933f ad47 973f a82f 783f 4dc7 8c3f
00000010: 4d84 903f defa 923f 6f2c 913f 85ff 873f
00000020: 2c2e 9b3f 54e1 903f 0085 833f 3fbb a13f
1.1545854 1.1818749 0.9694772 1.0998322 1.1290375 1.1482809 1.1341685 1.0624853
1.2123466 1.1318765 1.0274963 1.2635268

bias f4 [12]
00000000: 2176 82be 6cb9 dcbe a5f0 83be 9ab8 b3be
00000010: 4149 92be eda1 acbe 98f0 90be c483 c9be
00000020: 7ca4 abbe cb54 a0be 054b 9ebe 5f9a e2be
-0.2548075 -0.43110216 -0.25769535 -0.35101777 -0.28571513 -0.3371729 -0.28308558 -0.39358342
-0.3352393 -0.31314692 -0.3091661 -0.442584

running_mean f4 [12]
00000000: bce4 85c0 144f 29c0 929c 4f3f 622a 6c40
00000010: deba 0dc1 5913 403f 93bf 2cc0 3c7a 643e
00000020: fde7 72c0 81fc 6cbe 7c62 ebbf a818 b6bf
-4.1841717 -2.6454515 0.8109828 3.6900868 -8.858122 0.7502952 -2.6991928 0.22312254
-3.7954094 -0.23143198 -1.838943 -1.4226274

running_var f4 [12]
00000000: 2ff7 fb40 307d 8d40 ed29 9c40 ea33 5a40
00000010: 3364 0b41 0782 9740 22f0 bb40 5339 6640
00000020: 7db9 bd40 2f11 7640 e69f db40 3820 df40
7.873924 4.4215317 4.880118 3.4094186 8.711963 4.7346225 5.873063 3.5972488
5.9288926 3.8447988 6.863269 6.972683

weight f4 [4, 1728]
00000000: 5aa4 bfba 5bac f73c 6d38 8b3d bf4a ebbc
00000010: 6148 43bc ae95 8d3c 0d1f e83b 951d 9b3e
00000020: 05d6 093e 6eff 72bd 6c58 59bd ab73 b6bd
00000030: ad58 e63a 2b47 b83d 4a89 193e 6c9f e13c
00000040: 9449 35be ba93 16be 4b54 24be 106b 43bd
00000050: 0213 e9bd 486d a6bc 6a24 08bd fc9f 0ebe
00000060: d884 f83d baf1 213e d258 d63d c2ae 1bbd
00000070: bcdc c1bd cb9d 9dbe f3c7 c1be 072c 0dbe
00000080: db93 b3bb eb2f 87bc 83f0 f63c c27b 71bd
00000090: 7b34 5cbc 67a4 3abd ee2c 0d3e 8f0a a53d
000000a0: 7712 103e 9f67 6ebe d2da 34be 3a72 84bc
000000b0: 3a12 383e cb5f 493d 29fc 753e 69c2 b13c
000000c0: 0296 183d 4a03 743c 7aa7 723c 8fbe 16be
000000d0: 5428 343d 6510 a93d 96d0 f1bd 4bdd adbd
000000e0: 5844 a63d 4867 0e3e 249b 303d 1ec4 29bd
000000f0: 0e7d 863c b7b0 debc 5499 e8bd 635d 80be
00000100: 0075 373c db36 5cbe f4e1 c6be a585 acbe
00000110: 2194 aebd 1035 e9bd f515 b8be ed11 68be
00000120: ad15 823d 6cb2 1ebc 5236 3bbe 501d e23b
00000130: e1f9 283e 4180 803d 75b2 13bf 8e7b 01bf
00000140: 2813 25be dc61 353e bcdf 23ba 6696 d7bd
00000150: ce2b 8fbd 3d8b bebb e0dc 96bd b4e6 2cbd
00000160: 09b2 35be 668a 25be 2d47 123d 4eae 35be
00000170: 00c8 9b3b b244 663e 025b 0f3e 2f9f 8abd
00000180: b099 98bd 95bd 01be 1e0f 813c b0c7 8ebd
00000190: 75dd bbbd 0c08 0ebe 44eb a3bc 2ddc c8be
000001a0: f640 aabe 9a40 f4bd eab1 1d3d 3213 b9bd
000001b0: f178 08be 7c05 58bd 3579 003e 14eb 9e3c
000001c0: f0ef 03be 85ee cfbe 9b09 b2be cb96 903d
000001d0: b4c8 12bd 5785 60bd c586 803d 3971 493d
000001e0: f423 eb3d 26af 233e a415 033e b5b6 55bb
000001f0: f994 3fbe f183 53be 4d0c 9bbc bb32 c2bd
00000200: b87e 03be ce1d 31bc 8530 e03c 2aca ebbc
00000210: b848 8c3d 4f29 a93d 55b8 f13d a4b9 d33d
00000220: b54e cc3b a0b1 d8bd f5c9 4d3d bc32 353e
00000230: eca1 4a3e 5789 1bbd 600d 32bd fe3b fdbd
00000240: 5d37 a33c 57cf 813b 2a17 e13c db4a a13d
00000250: 78f9 c83d 7231 463d 0bd4 d0ba a1d2 f93b
00000260: 4d7c 7ebc 997e 5abd 1166 16bd 795f 07bd
00000270: 23e7 5a3c d28e afbd 4e31 1cbd 6bd1 513e
00000280: 5992 e33d 3689 a03d ba3e 7c3d 7432 263e
00000290: 5989 283e 6b85 e23d 17a3 d9bd 362e 373d
000002a0: 85f9 973e 5adb 173d a8ec d5bd 2279 a13d
000002b0: 1d93 f93d 83b4 2ebc 034b 96bd 4ce2 bfbd
000002c0: 7235 14be 6113 ecbd a16e febc 30ba aabb
000002d0: 495c 043e c2e2 25be f225 3fbe 5481 3e3e
000002e0: b9c5 0b3e 4b41 41bd 8ae9 c5bc d8ce 2abd
000002f0: f7ae e23c 7e17 9dbd ea82 c73c cc1d 5a3d
00000300: 8871 cd3d 1c3c e4bd 8c15 84be d135 81be
00000310: 98e1 8dbe 2bdd 38be c423 163e aed5 473e
00000320: b2f7 263d 5723 6dbe 04af a4be ddd3 8dbd
00000330: 4ea7 973d df58 433d 2a98 933c d3be 9dbd
00000340: 9be4 b7bd fd74 2dbe 01d9 6dbd 7d55 6c3d
00000350: 8066 863d 4bcb 35be 1d3a 87be b1fe 84bd
00000360: ea9e 25be e17e 3fbe 3cc3 073c 2298 ecbd
00000370: 03c8 f0bd 0a76 513d 68dc 403d 7ce0 8bbd
00000380: f75e 1fbd 498f a2bd 9114 debd 23f9 a4bc
00000390: 94ab 0bbe 87f3 6a3a ede5 943c 0e79 71bd
000003a0: 28ef 66bc 35c3 b53d 7b23 b2bc 0621 23be
000003b0: 8880 ddbd ab7f 8e3d 08d8 78bd 3d1c 533e
000003c0: 6e93 4cbd 004f 01bd 0abd 123e ed3f 433d
000003d0: 8e8c 163d eacd 1d3e ff1d d03d 8509 0c3d
000003e0: 7b3b 4f3d f619 39be 8127 03be 31c8 1b3e
000003f0: 862c 9cbd 21f7 2cbd 3540 2a3e 90b3 17be
-0.0014621124 0.030233553 0.06797872 -0.028722165 -0.011919112 0.017283287 0.0070837797 0.30296007
0.13460548 -0.059325628 -0.05306284 -0.08908781 0.0017574035 0.08997949 0.14993778 0.027541839
-0.17703849 -0.1470479 -0.1604778 -0.047709525 -0.113805786 -0.020315781 -0.033237852 -0.13928217
0.12134713 0.15814868 0.1046616 -0.03800846 -0.0946593 -0.3078445 -0.37847862 -0.13786326
-0.005480272 -0.016502341 0.030143982 -0.058955915 -0.013440247 -0.045566943 0.1378667 0.080586545
0.14069544 -0.23281716 -0.17661598 -0.016167749 0.17975703 0.04916362 0.24021973 0.021699147
0.037252434 0.014893362 0.014810437 -0.1472113 0.043983772 0.0825508 -0.11807363 -0.08489474
0.08118504 0.13906586 0.043116704 -0.041446798 0.016417053 -0.027183874 -0.1135737 -0.25071248
0.011197329 -0.215053 -0.38844264 -0.33695713 -0.08524347 -0.11387074 -0.35954252 -0.22663088
0.063517906 -0.009686094 -0.1828244 0.006900467 0.16501571 0.062744625 -0.5769418 -0.50579154
-0.16120589 0.17713112 -0.00062512956 -0.10526733 -0.06990777 -0.0058149383 -0.07366347 -0.042212203
-0.17743696 -0.16166076 0.03571241 -0.17742273 0.0047540665 0.22487143 0.1399956 -0.06768643
-0.074511886 -0.12669976 0.015754279 -0.06971681 -0.09173099 -0.13870257 -0.020009644 -0.3923048
-0.33252686 -0.11926384 0.03849975 -0.09036864 -0.13327385 -0.052739605 0.12546237 0.019399203
-0.12884498 -0.40611663 -0.34772953 0.070600115 -0.035835937 -0.054814663 0.06275705 0.049180243
0.11481467 0.15984783 0.12801224 -0.0032610123 -0.18709172 -0.206558 -0.018926764 -0.09482332
-0.12841308 -0.010810329 0.027366886 -0.028782923 0.068498075 0.08259832 0.11802737 0.103381425
0.0062349685 -0.10580754 0.05024143 0.17695135 0.19788331 -0.037972774 -0.043469787 -0.12364958
0.01992386 0.0039614844 0.027476866 0.07875606 0.098132074 0.048387 -0.0015932334 0.007623986
-0.015532565 -0.05334339 -0.03671843 -0.033050034 0.013360771 -0.08572163 -0.038132958 0.20490043
0.11111898 0.07838671 0.06158326 0.16230184 0.16458644 0.11060604 -0.1062681 0.044721805
0.29682556 0.037074424 -0.10445529 0.078844324 0.12186263 -0.010663155 -0.07338526 -0.093693346
-0.14473513 -0.11527134 -0.031058611 -0.0052101836 0.12925829 -0.16199782 -0.18666819 0.18604022
0.13649644 -0.04718141 -0.024159212 -0.041701168 0.02767132 -0.076704964 0.024354417 0.053251073
0.1003142 -0.111442775 -0.2579769 -0.2523637 -0.27711177 -0.18053119 0.14662081 0.19515106
0.040763564 -0.23158012 -0.32164776 -0.06925175 0.07404958 0.047692176 0.018016893 -0.077024125
-0.0897915 -0.16939159 -0.05806828 0.057698715 0.06562519 -0.17753331 -0.26411524 -0.06493891
-0.16173902 -0.18700744 0.008286294 -0.115524545 -0.11756899 0.05113796 0.047085196 -0.06829926
-0.038908925 -0.07937486 -0.108437665 -0.020138329 -0.1363967 0.000896268 0.018176043 -0.058953337
-0.014095105 0.088751234 -0.021745434 -0.15930566 -0.10815531 0.069579445 -0.0607529 0.20616241
-0.049945287 -0.03156948 0.14329925 0.047668386 0.036755137 0.15410581 0.10161971 0.034188766
0.050593834 -0.1807631 -0.12808038 0.15213086 -0.0762568 -0.042227868 0.16626056 -0.14814591

bias f4 [4]
00000000: b017 283d 5fc4 72bd ab19 c13b 9014 50bb
0.041038215 -0.059269305 0.0058929524 -0.0031750537
